Exercise 4/tiny_shake.pt (torch, 570055 bytes, 11 tensors)

weight f4 [100, 100]
000000 82 d0 01 c0 c0 1c a8 3f e4 36 3b 3f 5c d8 e4 be
       -2.0283513 1.3133774 0.7313063 -0.4469632
000010 98 79 c9 bf 71 9e 82 3f ce 05 33 3e cd f5 82 3f
       -1.5740232 1.0204602 0.17482683 1.0231262
000020 a1 77 bb bf 4d 97 7b 3d e5 58 32 be 94 f6 68 3e
       -1.4645883 0.06142359 -0.17416723 0.22750312
000030 ba 60 10 c0 df 9e b2 bd 26 40 27 3f 5c 67 f0 be
       -2.2559037 -0.087217085 0.6533226 -0.46953857
000040 24 69 c1 be cd ef 73 3f e8 eb 9d 3d a7 3f 31 3f
       -0.37775528 0.9528778 0.07711011 0.6923775
000050 b6 c4 5d 3f 74 53 a1 be 5f c0 01 bc 7c ad 01 3e
       0.8662828 -0.31508982 -0.0079194 0.12663835
000060 97 07 27 bf fa 13 6f bf ae 56 ab 3b 25 c1 ad be
       -0.65245956 -0.93389857 0.005228839 -0.3393642
000070 fa 40 28 bf 03 c3 a0 bf 60 1f 0a 3f 62 73 12 c0
       -0.65724146 -1.2559513 0.53954124 -2.2882924
000080 15 ed b7 bf dd 6b 60 3f 9a 67 ca 3d 84 8c bd bf
       -1.4369227 0.87664586 0.09883042 -1.4808507
000090 d6 a9 d7 3f 16 61 c3 3e 2c 19 0c 40 9d dc 42 c0
       1.6848705 0.38160008 2.1890364 -3.0447152
0000a0 41 ca 8e bf 80 8f 81 3f 2c fc 01 3c 52 aa ce be
       -1.1155473 1.0121918 0.007933658 -0.4036432
0000b0 2b 3f 12 bf a9 87 93 3f c9 f2 1b 3d 92 ee e0 be
       -0.57127637 1.1525775 0.038073335 -0.43932015
0000c0 c4 33 97 bf e5 4f fd 3e f4 8c de 3e 39 37 20 bf
       -1.1812673 0.49475017 0.43466914 -0.62584263
0000d0 3d c1 10 3f 48 ef 3d bf 0f 98 2a be af f0 43 bf
       0.5654486 -0.7419324 -0.16659568 -0.7653913
0000e0 17 53 15 c0 bc 86 31 40 bd 19 53 bf 6c 1d df 3e
       -2.3331964 2.7738485 -0.8246115 0.43577135
0000f0 da 7a 3a be 7f 1d 90 3f ed e5 c9 3f 24 db 39 40
       -0.18210927 1.1259001 1.5773293 2.9040003
000100 61 24 07 40 44 9e 5e 3f 24 92 84 bf 65 e1 bb 3f
       2.1115954 0.86960244 -1.0357099 1.467816
000110 92 08 59 be d9 09 21 3f c6 8e f8 be 72 88 2c 3f
       -0.21194676 0.6290565 -0.48546427 0.673957
000120 2f 31 6b 3f f2 04 f1 3e aa d3 5b bf 46 23 55 3f
       0.91871923 0.47074085 -0.8586985 0.8325695
000130 c4 46 04 be 8c 57 13 3f 00 b1 ad 3f e5 22 d2 be
       -0.1291762 0.5755546 1.3569641 -0.41042247
000140 31 50 0a 3f 8e 56 ad 3e c6 fe e0 3f e6 c3 81 bf
       0.5402861 0.33855098 1.7577751 -1.0137908
000150 51 ac 22 bf 2d a7 cd be 3b 0d 39 bf 87 eb 0f 40
       -0.63544184 -0.40166607 -0.72285813 2.2487504
000160 a1 f1 de 3e 0f c2 74 3f 10 1a 39 bf 33 e8 92 3f
       0.43543723 0.9560861 -0.72305393 1.1477112
000170 8d 21 04 3f 1b 56 1a bf b8 f1 f6 bf e6 5a d1 bf
       0.51613694 -0.60287637 -1.9292517 -1.6355865
000180 fd ce e3 3e 0e 26 5d 3f 57 98 46 3e f5 33 0d bf
       0.44493857 0.8638619 0.1939405 -0.55157405
000190 2d 5f 38 bf b6 e4 85 be f2 82 61 bf 0b c8 14 be
       -0.72020227 -0.26151055 -0.8809043 -0.14529435
0001a0 02 b2 3f 3f 21 ff 24 c0 e3 e0 d1 be 6a 73 4a bf
       0.74880993 -2.5780718 -0.40991887 -0.7908236
0001b0 11 59 a9 3f 3e 9a b2 bf e3 93 50 3c d4 6d 98 3e
       1.3230306 -1.3953321 0.012730571 0.29771292
0001c0 95 cd f1 3e 59 08 89 3f f7 32 ee bf 33 25 de 3f
       0.4722716 1.0705673 -1.8609303 1.7355102
0001d0 d4 c4 3c 3f 03 bb 1e 3e 13 a0 14 bf 40 1e 6c bf
       0.73737836 0.15501027 -0.58056754 -0.9223366
0001e0 a6 1e 70 bf 4c 42 48 3f 13 38 e5 3e da 40 0f bf
       -0.93796766 0.7822616 0.44769344 -0.5595833
0001f0 10 8d 8d bf 11 36 62 bf b6 7d e3 be f9 e8 06 40
       -1.1058674 -0.8836375 -0.44431847 2.1079695
000200 33 d6 84 bf 72 1e 5d bf 3c b1 43 be eb 63 ac bd
       -1.0377868 -0.8637458 -0.19110578 -0.08417495
000210 af 5c b9 bf 85 77 70 bf 6f d6 b0 3f 98 ea 30 3e
       -1.448141 -0.9393237 1.381544 0.1727699
000220 ec 64 27 3f b3 17 ed be 21 02 21 3f fc b1 76 3f
       0.6538837 -0.46307144 0.62893873 0.9636533
000230 85 0b 27 3e a5 1a b2 bf 56 ee b7 be f3 c1 92 3e
       0.16312988 -1.3914381 -0.35924023 0.28663597
000240 91 70 9d 3d 0b ad 92 bd 0a 88 f5 be 87 d0 0b 3f
       0.07687486 -0.071619116 -0.47955352 0.5461506
000250 d3 a8 ff 3e 16 9c f2 be ef 4c 36 3f 11 93 38 bd
       0.4993349 -0.4738471 0.7121114 -0.04506213
000260 8d e0 82 bc db ab a6 3f 2d c5 91 3e 6e 01 4e be
       -0.015976215 1.3021196 0.28470746 -0.20117733
000270 5e 8c 59 be 60 f2 86 3f 48 cb a4 be ca a3 05 c0
       -0.21244952 1.0542717 -0.3218634 -2.088122
000280 db a9 a4 3e b3 0a a1 3f 5f 0c 4a 3e 61 a2 87 bf
       0.3216084 1.258139 0.19731282 -1.0596429
000290 a6 0a b3 3f 88 1e cd bf 3b cf 9f be 1f 4d 14 3f
       1.3987625 -1.6024942 -0.31212792 0.5793018
0002a0 f8 f4 1e 3e b2 87 39 3d c5 40 5f be 3d 70 66 3e
       0.15523136 0.045295425 -0.21802051 0.22503753
0002b0 fe 82 16 3f 6b 8b 03 c0 b7 82 92 3f 5e 6c 26 bf
       0.5879363 -2.0553844 1.1446141 -0.65009105
0002c0 25 31 60 3f 0c 97 66 3f 18 e8 c4 bf 11 7b 97 3f
       0.8757499 0.9007423 -1.5383329 1.1834432
0002d0 98 7b 23 be c0 5c 4a 3f 72 51 b8 3e fc 6c 65 3f
       -0.15965116 0.79047775 0.35999638 0.8961942
0002e0 c5 69 51 3f 47 0f 00 40 c7 fa f4 bf da c5 bf bd
       0.81802016 2.0009325 -1.9139031 -0.09363909
0002f0 aa e0 c0 3d 74 a9 7c 3f ed a2 ad 3e 91 96 d7 3f
       0.09417851 0.98696065 0.33913365 1.6842824
000300 08 9c 8d 3c 11 e5 38 bf de 2b d2 3f 23 4e 4b 3f
       0.017286316 -0.7222453 1.6419637 0.794161
000310 29 f5 1b c0 4e a8 80 3d 8d 77 0b c0 01 b8 2f 3e
       -2.4368384 0.062821016 -2.1791718 0.17160036
000320 ff 0c d3 3f 7e e3 7b 3d 86 5c ad be dc bb 17 3e
       1.6488341 0.06149625 -0.33859652 0.14817756
000330 a0 1a 14 be fe 32 b8 3f 7a ac 36 c0 b1 0b 83 be
       -0.14463282 1.4390562 -2.8542771 -0.25594857
000340 2a ce 28 bf 6f fc 26 bf 6f 72 1b 3f 87 2d 06 3e
       -0.6593958 -0.65228933 0.60721487 0.13103305
000350 5f 51 3e 3f 66 ec c2 bf 27 c7 37 bf f7 72 a4 3f
       0.7434291 -1.5228393 -0.7178826 1.2847584
000360 b9 5b 90 3f 65 ef 65 bf 88 91 8a bf 2e c3 aa bf
       1.1277992 -0.8981841 -1.0825663 -1.3340814
000370 34 bb 91 bf c4 91 de 3f 7a 10 c3 be 4e 7e 5e bf
       -1.1385255 1.7388234 -0.38098508 -0.86911476
000380 ae 03 97 bf 2b 89 a9 3e 7e 34 37 3f f4 d9 8c 3f
       -1.1797998 0.33112463 0.7156447 1.1004014
000390 79 5e 72 bf 9f c8 48 3c 6c 59 5f bf 6d 84 07 3f
       -0.94675404 0.012254863 -0.8724582 0.5293644
0003a0 03 34 d9 3d d3 60 0d bf 9a 82 8e be e4 cb 84 3f
       0.106056236 -0.5522587 -0.27834016 1.0374722
0003b0 76 6e fd bf 80 94 96 3f f1 30 d9 bf 9e 3d f2 be
       -1.9799335 1.1764069 -1.6968061 -0.47312635
0003c0 e1 8c 7f bf 85 18 7b 3f 48 14 c9 bf 81 88 0d 3e
       -0.9982434 0.9808429 -1.5709314 0.13821603
0003d0 17 71 d3 3e 76 39 50 be 43 07 04 c0 03 13 ce bd
       0.41297218 -0.2033442 -2.0629432 -0.1006222
0003e0 2c f9 26 be c2 3d f7 3e f6 21 ef be 03 0e 1f bf
       -0.16305989 0.48289305 -0.46705598 -0.62130755
0003f0 01 7b 85 3e 49 83 39 3f 3e d5 86 bc f0 3d c9 3d
       0.26070407 0.7246595 -0.016459104 0.09826267

weight_ih_l0 f4 [300, 100]
000000 3f ec 1a be bb c3 6a bd 27 c0 8e bc e5 85 89 3e
       -0.15129183 -0.05731557 -0.01742561 0.26859966
000010 c2 ba be bd 8d 25 72 bd 7c 05 83 bd 8a c9 0f 3e
       -0.09312965 -0.059117842 -0.063975304 0.14041725
000020 ac 3f fd 3d d0 6c 75 3e 99 d4 6c be 77 52 67 3d
       0.1236566 0.2396729 -0.23127975 0.05647513
000030 85 6c 68 be 26 73 a6 bd 41 63 31 3d 96 30 61 be
       -0.22697647 -0.081274316 0.043307547 -0.2199119
000040 a1 17 f8 3d 89 72 0f be ca 5d 0f 3e 58 2f 84 be
       0.12113882 -0.14008535 0.14000621 -0.2581737
000050 f7 b1 30 3e 0f c2 15 bd 91 60 08 3e aa 9c 20 3c
       0.17255388 -0.03656202 0.13318087 0.009802977
000060 a4 ff 0c 3c 3e 9c 6d be 41 a8 ec bd cf 32 5f 3d
       0.008605871 -0.23204133 -0.115555294 0.054491814
000070 4e 99 9f 3d d5 db a3 3e 7a 50 29 3e 73 30 07 be
       0.077929124 0.32003656 0.16534606 -0.13202076
000080 d7 5b ec bd 6a e4 e3 bd 13 48 15 be fc 81 82 3d
       -0.115409546 -0.11127551 -0.14578275 0.06372449
000090 75 f9 a1 be 68 2e ec bd 01 07 9a 3d 93 53 cf bd
       -0.31635633 -0.11532289 0.07520867 -0.101233624
0000a0 cf ad 18 3e 65 e0 55 be ec e6 d8 3e 96 ca a4 3e
       0.14910053 -0.20886381 0.4236368 0.3218581
0000b0 33 6a dd 3d be 6d 0d be 74 14 38 be fe 18 c9 bd
       0.108112715 -0.13811395 -0.17976552 -0.0981922
0000c0 88 83 27 be 50 14 e7 3d 54 ff 85 3e d6 4d d5 be
       -0.16358769 0.11283171 0.26171362 -0.41660947
0000d0 1c c2 2d 3e 14 b3 aa bd 90 2c e4 bd 86 66 dd bc
       0.16968578 -0.08334938 -0.11141312 -0.027026426
0000e0 d1 a0 b3 3c 77 e3 0b be b2 09 55 be b2 46 d3 3d
       0.02192727 -0.1366099 -0.2080448 0.103162184
0000f0 37 2f 97 bd 12 63 d8 bd 92 87 d8 bd 7f f5 88 3d
       -0.073820524 -0.10565771 -0.10572733 0.0668745
000100 89 4b 94 3d f2 7b 6a 3e 3a dd 8b be c7 70 fa bc
       0.0724097 0.22898844 -0.2731722 -0.030571355
000110 37 5f 05 be 14 9e 98 be 18 d2 3c 3e ef e6 1e 3b
       -0.13024603 -0.29808104 0.1843952 0.0024246534
000120 05 1e 38 bd 69 19 39 be bb 62 60 bd 8f 2d cb bd
       -0.044950504 -0.180761 -0.054781657 -0.09920799
000130 bc ef ab be 37 87 d3 bd 2d c0 4d 3e 06 24 c1 be
       -0.3358134 -0.103285246 0.2009284 -0.37722796
000140 a8 f3 12 3e 4c b1 14 3c ae c9 33 3e 9b 4c 83 3d
       0.1435076 0.009075474 0.17557403 0.06411096
000150 d7 01 38 bd 1f f3 75 3e c7 fc f3 bd 7e 36 03 3b
       -0.04492363 0.24018525 -0.11913448 0.0020021494
000160 da 8e 41 3e 06 4e a8 3e 1a 1e 0a 3c 66 9d 96 bd
       0.1890215 0.32872027 0.008430028 -0.0735424
000170 8c 01 86 3e 5e a5 a0 3d 55 e7 b7 be 62 f9 a4 bd
       0.26173055 0.07844041 -0.3591868 -0.080553785
000180 e7 62 eb 3a f7 a3 87 3d ee 26 9e be 07 a8 d6 bc
       0.0017958552 0.06623071 -0.30889076 -0.026203169
000190 71 56 b9 3d 2a 45 a4 3d 8b 5f 17 be 63 31 ac 3d
       0.090496905 0.080210045 -0.1478254 0.08407857
0001a0 1b fd e1 3d d8 a6 02 bd a9 02 b4 bc e2 a1 30 3e
       0.11034604 -0.031897396 -0.021973925 0.17249253
0001b0 94 60 df bc af 2d b3 bb ad 48 7c 3e ca 2b 34 3e
       -0.027267732 -0.0054680924 0.24637099 0.17594829
0001c0 27 b6 9e 3d 77 db b9 3c cc 9b 94 3d b3 22 20 3e
       0.077495866 0.022687657 0.072562784 0.15638237
0001d0 f3 29 35 bd db 3f 76 3e 2c 6a 0d 3e a8 82 00 3e
       -0.04422946 0.24047796 0.13810033 0.12549841
0001e0 a4 00 8a 3e 19 9a be 3d 55 e2 1a be 74 2d 8e 3e
       0.26953614 0.093067355 -0.15125401 0.27769053
0001f0 39 6f 8e bd b1 9a 92 be 9c 24 c9 3e b9 63 d7 bc
       -0.06954808 -0.28633645 0.39285743 -0.026292669
000200 c7 02 16 3e 80 d4 86 3e c3 18 8b 3e 6c ee a4 bc
       0.14649497 0.26334 0.2716733 -0.02013322
000210 75 d8 99 3e 39 4f 26 be b9 4c eb bd e7 99 32 bd
       0.30047956 -0.16241159 -0.11489243 -0.043603804
000220 d1 9b 0c bd b8 29 72 be 5c b5 75 3e a4 7e 4f 3c
       -0.034328286 -0.23648727 0.23994964 0.012664471
000230 6f d0 c8 bd c4 eb 91 bc 05 e1 0a 3e 98 97 ab bb
       -0.098053806 -0.017812617 0.135624 -0.0052365772
000240 9f f6 43 bd 0f 40 13 3d 31 f6 81 bd e8 40 73 ba
       -0.047842618 0.035949763 -0.063457854 -0.0009279386
000250 81 7d b8 3d ee 73 ff bd b3 c4 68 3b ed 32 da 3c
       0.09008313 -0.12473284 0.0035517632 0.026635611
000260 e0 35 3c be 3b 28 57 be c3 13 bc 3e a1 2e c0 bd
       -0.18379927 -0.2101144 0.36733827 -0.09383894
000270 b3 d7 e3 3c a2 44 cf 3d 11 4d 22 be 7b a1 87 3e
       0.027812814 0.101205125 -0.15849711 0.26490387
000280 cd 49 36 be 07 e4 c4 3d dc 66 a4 3d ac e2 38 3d
       -0.1780159 0.09613805 0.08027431 0.045138046
000290 d0 9f e0 bd d7 dd c5 3d ee cc 7c bd 84 83 08 3e
       -0.10967982 0.09661453 -0.061718874 0.13331419
0002a0 63 af 52 bd 23 79 e3 3c e4 70 40 3d a6 98 a3 be
       -0.051436793 0.027767723 0.04698266 -0.319524
0002b0 7d f7 01 be aa 63 84 3d 59 1d f8 bd f6 43 2c bd
       -0.12692066 0.06464322 -0.121149726 -0.042057
0002c0 c7 ae f9 bc 68 be c6 3d 7b bd 48 be c7 5f 56 be
       -0.030478848 0.09704286 -0.19603531 -0.20934974
0002d0 fa a7 07 be 4a a7 61 3c 7f 66 46 3d 44 4a 76 3e
       -0.13247672 0.013772795 0.04843759 0.24051768
0002e0 0d 9b 51 3c fa 51 02 be d1 3d 5f bb 48 df 90 3e
       0.012793315 -0.12726584 -0.0034063945 0.2829535
0002f0 2e a3 ee 3c 9c 3b f0 3d c2 3a 13 3e 08 70 40 3d
       0.029130545 0.117301196 0.14377883 0.04698184
000300 0e 5f 93 bd c8 a4 6a 3c 1f c4 99 bd 8a 7e 7e bc
       -0.071958646 0.0143215135 -0.0750811 -0.015533099
000310 3e 69 45 be 3a 73 c9 3d 2b 77 0b 3e 1e 64 40 be
       -0.19278428 0.09836431 0.13619678 -0.18788192
000320 98 7b 8d 3c c5 f9 e1 3e a0 b5 15 3e f8 85 82 3b
       0.017270848 0.44135872 0.14620066 0.0039832555
000330 c3 fe 1d 3e ae 37 58 be b5 22 76 3d a1 5f 12 3e
       0.15429215 -0.2111499 0.060091693 0.14294292
000340 6e 91 64 be 76 b8 18 3d 00 bb 8e 3e 24 da 19 3e
       -0.22321102 0.03728529 0.27877045 0.1502462
000350 9f db be be c1 d1 2c 3e a5 33 18 3e d6 e5 cf 3d
       -0.37276933 0.1687689 0.14863451 0.101512596
000360 ed d2 33 3e 09 41 52 3e 07 0d 44 3e a3 63 0c 3e
       0.1756093 0.20532621 0.19145595 0.13709883
000370 37 c1 b8 bd d3 b3 78 3e fe a7 1b be de 35 a5 3e
       -0.09021228 0.24287347 -0.15200803 0.3226766
000380 cb d5 cc 3c 2e 71 9f 3d 50 62 0e be 0d c4 a4 3d
       0.025004288 0.07785259 -0.1390469 0.08045206
000390 2d 37 8e be b0 3d 9e 3e 52 ef 24 3d 9c b9 7a 3d
       -0.2777647 0.3090644 0.040267296 0.061212167
0003a0 b7 22 52 3e 95 75 78 3d 6c ff 40 be 14 1a 78 be
       0.20521055 0.06065901 -0.18847436 -0.24228698
0003b0 ca 72 15 3d 98 38 f5 bd c4 ba c3 bd 26 4d 73 3d
       0.036486425 -0.11973685 -0.09557107 0.059399746
0003c0 06 bf 65 3e c9 11 8f be b4 5f 46 3e ec bf 35 3e
       0.22436151 -0.27943256 0.19372445 0.17748994
0003d0 00 60 b7 3d ac 8c 35 be 4d 63 4f bd 41 2a a4 3e
       0.089538574 -0.17729443 -0.05063181 0.32063487
0003e0 c9 ea a3 be c3 9d 8b 3c b2 25 39 bd 8b f3 14 3e
       -0.32015064 0.017043 -0.045201965 0.1454603
0003f0 78 00 c4 3d 11 9e a2 3c bf b3 c0 3e b6 74 49 be
       0.09570402 0.019850763 0.37637135 -0.19673428

weight_hh_l0 f4 [300, 100]
000000 2e c0 0a bd ed fe 18 3e 0a ed 03 be 24 87 bc bd
       -0.033874683 0.14940996 -0.12883392 -0.092054635
000010 35 56 69 3e 50 8f 02 3e 69 af 2e bd 53 28 af 3d
       0.22786792 0.12749982 -0.042647753 0.08552613
000020 e0 1d 28 3c 5a 7d c6 3c bd 49 07 be 09 83 9a bd
       0.010261029 0.024229694 -0.13211723 -0.07544524
000030 0c 4e fe bd 98 d2 c3 3d 8c 7d 63 3e e1 8d d3 3c
       -0.1241723 0.09561652 0.22215861 0.02582449
000040 fd 44 47 bd 07 7b 98 bd 02 27 22 3e dc 9c 90 3d
       -0.048649777 -0.074453406 0.15835193 0.070611686
000050 ed d3 f8 3d 54 99 ae 3d 43 5a ec 3e ca ee 9f be
       0.12149797 0.08525339 0.46162614 -0.3123687
000060 10 95 82 bd fc b7 c4 3c 58 71 71 be 19 8f 98 bc
       -0.06376088 0.024013512 -0.23578393 -0.018622922
000070 9a 2f 0a 3d 6a fd bb 3d c0 da e0 bd b0 e8 63 3c
       0.033736803 0.09179194 -0.10979223 0.0139104575
000080 ca 83 55 3b 83 65 2b 3e 09 18 1a bd 61 68 a3 3d
       0.0032579773 0.16737942 -0.037620578 0.07978893
000090 03 aa f5 bb 01 ab 44 be 04 09 02 3e 52 92 3e bd
       -0.0074970736 -0.19205858 0.12698752 -0.04652626
0000a0 5c 8e 93 bd 46 a3 0a be a5 fc 62 3c 08 a4 88 3c
       -0.07204887 -0.13538846 0.01385418 0.016679779
0000b0 56 c8 31 bd 1b 7b 9e 3d 67 d6 2e 3e e4 b9 08 3c
       -0.043403946 0.07738324 0.17073976 0.008345101
0000c0 b0 0a ee 3b e4 32 fa bd 42 d9 0b 3e b6 ee cb bd
       0.0072644576 -0.12216738 0.13657096 -0.0995764
0000d0 ff ad 17 bd b0 25 3e be 7a d1 5d 3d 7e f7 43 3d
       -0.03703117 -0.18569064 0.05415485 0.04784345
0000e0 0f 44 fa 3c 6e df ca bd 2d e7 04 be cc 46 2a bc
       0.030550031 -0.09905897 -0.12978812 -0.010392856
0000f0 26 bf c2 3d 8b a5 b8 3c 53 9d d6 bc 88 20 8c bd
       0.09509115 0.022539875 -0.026198065 -0.06842142
000100 6c ec b7 bc 37 13 3a 3d 87 ed 91 3c 20 a6 d5 be
       -0.022451602 0.04542848 0.017813457 -0.41728306
000110 3c b0 12 3d b3 29 0a 3e 3d f9 cb bc 5c c7 a4 3d
       0.0358126 0.1349247 -0.02489912 0.08045837
000120 e4 27 12 be b4 22 75 3e 3f 3a 97 3d b0 47 b5 bd
       -0.1427303 0.2393902 0.073841564 -0.08851564
000130 e6 10 ec 3e 08 07 cc 3a 08 f9 c0 ba 27 83 91 bd
       0.46106642 0.001556606 -0.0014722655 -0.071050934
000140 f0 58 4e 3d 84 64 93 bd ca ef 8c 3e 14 db 8c bd
       0.050377786 -0.07196906 0.27526695 -0.06877723
000150 b0 07 d8 bd cc 3f 04 bd 98 69 30 be 17 26 bc 3c
       -0.10548341 -0.032287404 -0.17227781 0.022967381
000160 bc 85 80 be d7 1c 17 3e a4 a9 3c bd 9c 27 90 3e
       -0.2510203 0.14757095 -0.04606022 0.2815522
000170 77 77 63 3e 08 91 ae bd 4f 75 48 3c 17 a9 99 3c
       0.22213541 -0.08523756 0.012235 0.018757386
000180 77 47 4d bd db e6 4a 3d 41 65 f7 3d dd 26 48 3d
       -0.050116982 0.049536567 0.120798595 0.048865188
000190 3d 8c 15 3d c1 2d fc bd ba 5b 02 be 4b b7 a5 3d
       0.036510695 -0.12313414 -0.12730303 0.08091601
0001a0 f0 75 a0 3e 80 bd 2f 3d 55 68 68 3d 73 52 69 3e
       0.3133998 0.04290533 0.056740124 0.22785358
0001b0 e6 5b 4a be ac 73 87 3e 02 5d b7 be 2f d1 3a 3c
       -0.19761619 0.26455438 -0.35813147 0.011402412
0001c0 9d e2 b2 3e 82 90 1a bb 94 e7 3d bd d7 a1 83 3d
       0.34938517 -0.0023584669 -0.04636343 0.06427353
0001d0 8b 97 82 bd 2c c7 63 be 6e f1 c9 3e 5c 9d 86 3e
       -0.06376561 -0.22243947 0.3944201 0.2629193
0001e0 b8 6e c4 3e 61 5f bb 3d e6 3e 4e bd 5a fc 19 bb
       0.38365722 0.091490515 -0.050352953 -0.002349636
0001f0 4f f9 88 bd 40 69 9b 3c 44 1d 62 be 60 77 e6 3d
       -0.06688177 0.018971086 -0.22081476 0.11253238
000200 68 a6 20 3c ce 52 2d be 4e 5a 94 bc 75 04 83 be
       0.009805299 -0.16926119 -0.018109467 -0.25589338
000210 d1 09 f6 bd 37 65 ca bd 61 ac 8a 3e e5 42 10 be
       -0.12013591 -0.098825864 0.2708464 -0.14088018
000220 c3 56 46 3d 56 9b 41 3e 4f 08 cf bd 33 04 14 3e
       0.048422586 0.18906912 -0.101090066 0.14454727
000230 1c 25 da 3d 7c 8c ad be 27 ed 84 bd a5 bc cb bb
       0.10651609 -0.33896244 -0.06490546 -0.0062175565
000240 05 6b f0 3d 90 df 74 3e 7d c9 ee bd e0 a9 2d be
       0.11739162 0.23913407 -0.116595246 -0.16959333
000250 66 ea 24 bd c6 b0 f6 3d 50 ba 0d be 1d cf e9 be
       -0.040262602 0.120454356 -0.13840604 -0.45665827
000260 fc 05 4c be be 47 d9 bb 71 5d df 3c 36 e8 f2 3d
       -0.19924158 -0.006630867 0.027266236 0.11860697
000270 68 ea 1d 3d bc d7 b1 3d f7 27 9a 3c 42 bf 22 3d
       0.038553625 0.08683726 0.018817885 0.03973318
000280 55 46 8f be 30 38 de ba 31 f8 95 3e a1 7e 08 be
       -0.27983347 -0.0016954001 0.29290918 -0.13329555
000290 6c f8 81 3d 2e b0 74 3c 8d 1e 41 be 2e 32 3f bd
       0.06346211 0.014934583 -0.1885931 -0.046678714
0002a0 65 14 0b 3e 63 9b dd bc 39 4b de be 5c d5 85 be
       0.13581999 -0.027051633 -0.43416765 -0.26139343
0002b0 4c 37 e7 3d 7d 1d 3d 3d 09 56 cd be 6d 89 19 3a
       0.11289844 0.0461707 -0.40104702 0.0005856965
0002c0 64 88 b2 bd 11 6b 1c bd 9a 57 c8 be d1 3d 7f be
       -0.08717421 -0.038188044 -0.39129335 -0.24925925
0002d0 27 43 14 3e 89 5b d4 3d 96 91 b1 3e e7 0a a9 3b
       0.14478742 0.103690214 0.34681386 0.0051587704
0002e0 e1 07 b5 bd b6 0b 27 bc 44 d0 70 3d 19 bb 13 3c
       -0.088393934 -0.010195663 0.058792368 0.0090167755
0002f0 46 33 da bd b9 dc c3 3e ba 04 5d bd 0b 3b 5f bd
       -0.10654311 0.38254336 -0.053959586 -0.054499667
000300 3f b2 c2 3e 47 8c 0e be ca cd 8d bd 11 33 15 bb
       0.38026616 -0.13920699 -0.06924017 -0.0022766034
000310 37 fb ff be fa 40 4b be 0e fb b4 3d 42 ee e5 3d
       -0.4999635 -0.19849005 0.088369474 0.11227085
000320 84 1c d1 3b 21 d9 57 3e 89 91 96 be 0c 52 34 bd
       0.006381573 0.21078922 -0.2940791 -0.04402356
000330 1e ae 65 3e 1b 97 d1 be 1b 79 16 be ee 19 04 3e
       0.22429702 -0.40935597 -0.14694636 0.12900516
000340 44 ad b7 bd e8 ef 90 bd 7b 3a 88 be f7 e4 2c bd
       -0.08968595 -0.070770085 -0.26607117 -0.042210545
000350 44 53 ef 3d 2c 46 dd 3d f5 26 8f be ab 6c c2 be
       0.116858035 0.108044 -0.2795941 -0.37973532
000360 fa 7d 9e be b7 79 2f be b1 a6 0f 3e e6 59 1f be
       -0.30955487 -0.17136274 0.14028431 -0.15561637
000370 d8 86 fb 3d c7 69 0a 3d ad 26 a5 3e 18 13 b4 bd
       0.12281579 0.033792283 0.3225607 -0.08792704
000380 3c b5 43 be c1 eb 66 3c 7a a0 9c 3d 6b 7a d3 3e
       -0.19112104 0.014094294 0.07647796 0.41304335
000390 7b e3 6f 3e 4c ae ba bd bf 3b ae 3d 03 13 f1 3c
       0.2342662 -0.09115276 0.085074894 0.02942801
0003a0 27 a3 64 3e f6 63 aa be 38 1a 48 be 69 8f 5d be
       0.22327863 -0.3327939 -0.19541252 -0.21636738
0003b0 d7 3e e0 bc 9a cc c2 bd b0 1d dc bd 16 7c 2b 3d
       -0.027373714 -0.09511681 -0.1074785 0.041866384
0003c0 b4 68 00 3e d0 af 0d bf 4a d0 04 bd 44 fa 4d 3e
       0.12539941 -0.55346394 -0.032425202 0.20115
0003d0 52 f5 b3 bd c4 09 45 bd 10 38 87 bb 97 f6 cb bd
       -0.087870255 -0.048105016 -0.004126556 -0.09959143
0003e0 64 5f 3e bd 39 59 d2 bb de 3a bf bd 31 50 6a 3e
       -0.04647769 -0.0064193276 -0.093374 0.22882153
0003f0 83 04 8c bd 1c 6f 13 bd 95 5b 52 3c 2e 9a d3 3d
       -0.06836798 -0.035994634 0.012839218 0.10332142

bias_ih_l0 f4 [300]
000000 a4 22 1d bd 91 c8 56 bc 32 25 24 3d fd 95 18 3d
       -0.038363114 -0.013109342 0.040074535 0.037252415
000010 39 75 3c be 00 4c 9c bd 4f 93 50 be 8e a4 23 bd
       -0.18404092 -0.07631683 -0.20368694 -0.039951853
000020 50 11 54 bd f1 f6 34 be be 64 9d bd c0 59 f4 bb
       -0.051774323 -0.17672326 -0.07685231 -0.007456988
000030 1b 5d 88 3d ea 78 b4 bd a5 5d 07 be 4a 6a 86 ba
       0.066583835 -0.08812125 -0.13219316 -0.0010255065
000040 30 27 e2 bd 52 b6 95 3d 7a 6f ec bb fc aa 7b 3d
       -0.11042631 0.073101655 -0.0072154375 0.06144236
000050 77 0e 0c be f9 ba ad bd 2c b1 c7 3d ab 56 86 bd
       -0.13677393 -0.08482928 0.0975059 -0.06559499
000060 66 56 8d 3d 31 2d ef 3d be 2e f0 bd bb b0 c5 3c
       0.06901245 0.116785415 -0.11727665 0.024132123
000070 5d dd 17 be fd 2c ee 3d fa 64 ba 3d f8 0b 9b bc
       -0.14830537 0.116296746 0.09101291 -0.018926606
000080 b5 5d c4 bc d1 9e 4e 3d 51 69 b2 bc a0 01 e3 3c
       -0.023970464 0.050444428 -0.021778734 0.027710736
000090 5a 93 8f bd 63 f4 2c bc e0 66 a0 bd 93 f6 87 3d
       -0.07010527 -0.010556313 -0.07832122 0.06638827
0000a0 8b 1e d9 3c 77 8e a0 ba 46 34 4f 3d e0 a9 8d bd
       0.026503822 -0.0012249489 0.05058696 -0.06917167
0000b0 51 c5 03 be 9a e4 02 bd 8c 4a 55 bc d8 b9 9b bd
       -0.12868239 -0.031956293 -0.013018262 -0.07603806
0000c0 c2 63 91 3d 0f 75 3a bd 8b de 44 3d 5b 86 1b be
       0.070991054 -0.045521792 0.048063796 -0.15187971
0000d0 0a b9 25 be d0 c4 36 3a 50 73 e9 bc a5 7b 93 bd
       -0.16183868 0.00069720764 -0.028497368 -0.07201318
0000e0 3d 46 4b be 7a 95 92 3d c5 fb 96 bd 28 cf 3e bd
       -0.19851013 0.07157417 -0.0737224 -0.04658428
0000f0 e1 5d ab bd c2 31 2d bd ce bc e5 3c 79 91 e9 3c
       -0.08367515 -0.04228378 0.02804413 0.02851175
000100 a3 fd 01 be 20 21 fb bd 8a 03 e9 3c fc a4 4d 3d
       -0.12694411 -0.122621775 0.02844407 0.05020617
000110 8b 53 6f 3d 12 04 cb bd 80 9a 67 3d 83 7a e8 bd
       0.058429282 -0.09912886 0.056543827 -0.11351492
000120 2a 96 1a be 39 7e 99 bd 52 32 43 3d 1c 85 99 3d
       -0.15096346 -0.07494778 0.04765541 0.07496092
000130 df bd ef 3c 30 16 4b bd 6f e0 b4 3a d5 73 5c bd
       0.029265342 -0.049581707 0.0013799797 -0.053821404
000140 20 a7 ed bd 85 4c d3 bd 99 84 3a bd 38 49 36 bd
       -0.11604142 -0.10317329 -0.04553661 -0.04450342
000150 0f 36 e6 3d 73 01 89 bc be 7a dd 3d f7 db 68 bd
       0.112407796 -0.016724324 0.10814427 -0.0568504
000160 7c 50 d8 bd 4c 42 78 3e 97 c8 4f 3d a2 2d 78 bd
       -0.10562226 0.2424404 0.050728407 -0.060590394
000170 b8 8b a1 3c 5c 5d bc 3d 74 fd 1e bd a6 8a 01 3b
       0.019719943 0.091974944 -0.03881593 0.0019766479
000180 4d a2 ae bd 66 3a b0 3c f9 fc b6 3d b5 5b 26 be
       -0.0852705 0.021512222 0.089349695 -0.16245921
000190 53 62 90 be 8c 54 0d be fc 0c 0e be f8 eb 67 be
       -0.28200015 -0.13801783 -0.1387214 -0.22648609
0001a0 9f b7 3f be 04 c7 b1 be 6c 6e 2d be af 33 3a be
       -0.1872239 -0.3472215 -0.16936654 -0.18183778
0001b0 d2 ce 5c be 82 9f 28 bd ec 2a 41 be 34 9e cc 3c
       -0.2156327 -0.041167744 -0.1886403 0.02497778
0001c0 39 48 83 be 06 31 78 bc f6 48 53 be 00 aa 5a bd
       -0.2564104 -0.015148407 -0.20633301 -0.05338478
0001d0 e4 c6 54 be c5 73 2e be 1c 91 43 be 00 ec 93 bc
       -0.20778996 -0.1703635 -0.19098324 -0.01805687
0001e0 66 38 07 be 9c 21 69 be 15 6b e0 bd f5 a7 1c be
       -0.13205108 -0.22766727 -0.10957924 -0.15298446
0001f0 c3 3d 61 be a2 b2 08 be e3 f3 90 be 24 fc 04 be
       -0.21996216 -0.13349393 -0.2831107 -0.12986809
000200 14 66 58 be 6d 4f a9 bd 22 e0 7f be 26 9f 53 be
       -0.2113269 -0.082671024 -0.24987844 -0.20666179
000210 05 71 47 be 9a c3 20 be 14 d5 18 be b3 8c 56 be
       -0.19476707 -0.15699616 -0.14925033 -0.2095211
000220 dd 3b 28 be b3 66 a3 be 90 e1 47 39 6d 2f 89 bd
       -0.16429086 -0.3191429 0.00019062147 -0.06698499
000230 ed c8 3f be cd 15 b7 be 61 83 b3 bd 78 cc 72 be
       -0.18728991 -0.3575882 -0.08765293 -0.23710811
000240 fb 92 85 bc f6 88 70 be 0c e9 5c be 82 87 39 bc
       -0.016305437 -0.23489746 -0.21573275 -0.0113238115
000250 0b 29 33 3c 4e 13 4b be dd 08 85 be af 6d c8 bd
       0.010935078 -0.19831583 -0.25983325 -0.097865455
000260 c5 fa cd bd 97 49 ba bd 27 48 c1 3d f5 23 26 be
       -0.10057596 -0.090960674 0.0943759 -0.16224654
000270 0a f0 7c bd 1a ba 8b bd b8 1c a6 be fe fc f4 be
       -0.061752357 -0.068226054 -0.32443786 -0.47849268
000280 0b ee 08 bd a7 70 03 be c5 8b c5 bd b0 fb 50 be
       -0.03343014 -0.12835942 -0.096457995 -0.20408511
000290 a2 20 a4 be b5 d6 ca bd 91 8e c5 bd 69 56 21 be
       -0.32056147 -0.09904233 -0.09646333 -0.15755619
0002a0 d5 1f 33 be 83 36 12 be 96 f0 29 be 87 76 68 be
       -0.17492612 -0.14278607 -0.16595683 -0.22701465
0002b0 10 de 5d 3c b8 85 cd bd d2 2c 6e be bb 50 f1 bc
       0.013541713 -0.100352705 -0.23259285 -0.02945744
0002c0 8c 02 13 bc 2d be 03 be bf 8a 41 be 40 2a 47 be
       -0.008972775 -0.12865515 -0.18900584 -0.19449711
0002d0 8f 6e ae bd d9 8e 24 be b7 24 86 be f9 2b 3e be
       -0.08517181 -0.16070117 -0.26199886 -0.18571462
0002e0 52 a7 0d be 94 c3 f5 bd ea 2d 86 be 72 50 3f be
       -0.13833359 -0.12000194 -0.26206905 -0.18683031
0002f0 e6 03 8b be 09 43 9a bd 4f 67 c7 3d 49 44 6b be
       -0.27151412 -0.07532317 0.097365014 -0.22975267
000300 15 37 04 be b2 65 b3 3d 87 31 b4 bc ae b5 85 be
       -0.12911637 0.08759631 -0.021996273 -0.26115173
000310 87 55 5c be e0 08 4f be aa b0 3e be 41 79 42 be
       -0.21517001 -0.2021823 -0.1862208 -0.18991567
000320 01 95 fe 3d cf 2f 23 3d 17 08 bd 3d b4 19 96 bd
       0.12430764 0.039840516 0.09230059 -0.07329121
000330 af 25 97 3d 65 f0 55 bd ed bc 0d bd 0d 82 2e bd
       0.073802345 -0.05223121 -0.034604 -0.042604495
000340 ff 45 53 bb c2 1f 25 3e 45 07 61 3b 4f e8 03 3e
       -0.0032237766 0.16125396 0.0034336608 0.12881587
000350 0d 21 dd bc 8f a9 83 3d 25 ea 83 3d f3 49 5a 3d
       -0.026993299 0.06428825 0.06441144 0.05329318
000360 82 b5 d3 3d bf 15 51 3c 45 a9 87 bd 95 99 e5 3d
       0.10337354 0.012761532 -0.066240825 0.11210934
000370 e4 39 86 3d fe 6b 1e 3e bd 91 dc bd 9a 35 33 3c
       0.065540105 0.15470883 -0.10769985 0.010938073
000380 a9 b5 bd bc 77 a8 54 3d 5c 36 b8 3c ee e4 22 3c
       -0.023157911 0.051918473 0.022486858 0.009942276
000390 38 24 d5 3d d7 23 df bd af 20 5e 3d 6e 11 e0 3c
       0.10407299 -0.10895508 0.05423039 0.027352061
0003a0 d1 f2 e6 3d da 0e 46 bd e8 77 dc 3d e3 47 d9 bc
       0.11276782 -0.048354007 0.10765058 -0.026523536
0003b0 38 b7 48 bc 1c e2 c7 3d 4d 69 07 3d c6 d7 ea 3d
       -0.012250714 0.09759924 0.033059407 0.11466937
0003c0 a7 86 b7 bd 95 03 a2 bd 25 2e 09 bc d2 d8 e3 3d
       -0.0896123 -0.079108395 -0.008372818 0.111253396
0003d0 c6 21 17 3e f4 e0 06 3c 82 9b 90 bc 4e 8a 27 3c
       0.14758977 0.008232344 -0.017652277 0.0102258455
0003e0 7f a1 4d 3e 3b 1a a6 ba 47 62 31 bd 27 5f 49 ba
       0.20081137 -0.0012672612 -0.043306615 -0.00076817203
0003f0 a1 2b 02 3e 72 ee ff 3c d3 fa 40 bd 5c 21 01 bc
       0.12711956 0.03124163 -0.047114205 -0.007881489

bias_hh_l0 f4 [300]
000000 cd ee ae bd e4 0d ec 3d 0d 12 f2 bb b6 05 03 3b
       -0.085416414 0.11526087 -0.0073874057 0.0019992418
000010 8a 02 bc bd 10 3f da bd 5c f3 58 bd 9a 3e 33 3d
       -0.09180172 -0.106565595 -0.05296646 0.043760873
000020 d8 8f 86 bd c8 d5 96 bd ef a8 c9 3c 89 3d 61 3d
       -0.06570405 -0.07364994 0.024616687 0.054990325
000030 e2 d9 b6 bd ce 64 d1 bd 3d 56 0a be 94 f8 4b ba
       -0.089282766 -0.10224305 -0.1350946 -0.00077808765
000040 7a 70 b4 bb 86 34 36 3d 0b 0e 29 3e a7 87 33 3c
       -0.0055065723 0.044483684 0.16509263 0.010957635
000050 10 e2 96 bd c5 48 dc bd b8 79 79 bd 8d 06 19 be
       -0.07367337 -0.10756067 -0.060907096 -0.14943905
000060 cb e0 b7 3d 52 27 4a bd 0f ed 39 3d 38 76 b9 3b
       0.08978423 -0.049353905 0.045392092 0.0056598447
000070 5b 85 3e be 90 dd ce 3d 46 c7 22 bd 4e 1c ad bd
       -0.18605559 0.101008534 -0.039740823 -0.08452664
000080 ae 25 d6 bd 79 f0 43 3d 5e 03 b7 bb 12 3c 22 bc
       -0.104564056 0.047836754 -0.005585118 -0.009902017
000090 8a 7d e2 bc aa 46 27 be 86 5d 1a bd 35 e5 69 bd
       -0.027647752 -0.1633555 -0.037686847 -0.057103354
0000a0 16 32 26 3d 94 4f 95 bd c8 b7 8e 3b ef e2 63 bd
       0.04057511 -0.07290569 0.0043554045 -0.055636343
0000b0 33 1d 3b be 22 7c 12 be 9a d1 85 bd a8 1f 66 3d
       -0.18272857 -0.14305165 -0.06534119 0.056182534
0000c0 ff 89 d5 3d 76 94 20 be 00 89 10 bd a1 fe 51 be
       0.10426711 -0.15681633 -0.035286903 -0.2050729
0000d0 1d 06 b4 bd ae bf 5e 3b 50 55 3f bc 44 88 ac 3d
       -0.087902285 0.0033988762 -0.011678055 0.08424428
0000e0 4c 37 5f bd 46 e8 c2 bd 54 25 01 bd 6a d7 4f bd
       -0.054496095 -0.09516959 -0.03152974 -0.050742544
0000f0 13 5a c6 bd 66 00 b5 bc 51 41 84 bd ad 87 af bc
       -0.09685149 -0.022094917 -0.064577706 -0.021427
000100 22 ce e1 3c 25 30 9b bd ef f0 c8 bb 3e 2b 81 bc
       0.027564112 -0.07577542 -0.006132237 -0.01576769
000110 93 70 0c 3d 4a 1b 4f bd 90 ee b6 bd 4c 48 b5 bd
       0.034287047 -0.050563134 -0.08932221 -0.0885168
000120 f5 86 8f 3c 1e 58 66 bd 78 a5 7d 3c 30 d5 9c bd
       0.017520407 -0.05623638 0.015481345 -0.0765785
000130 0b 2e ac bd 58 5b 44 bd 2b ea a4 bc 79 84 24 bd
       -0.084072195 -0.047938675 -0.020131191 -0.0401654
000140 be d2 ed bd f4 aa 5c bc 3f d3 ab bd 45 7f 67 bd
       -0.116124615 -0.013468493 -0.08389901 -0.056517858
000150 a1 2a f2 3d c2 87 0f be 0e c3 ee 3d b7 ba 6e 3d
       0.11824537 -0.14016631 0.116582975 0.058283534
000160 05 8c d4 bd 22 56 8d 3e 08 cf 78 3a e3 95 f0 3c
       -0.10378269 0.27604777 0.0009491299 0.029368347
000170 9b 47 22 3d 00 20 ce 3c a3 92 13 be ce f3 e2 bd
       0.03961907 0.025161743 -0.14411406 -0.11081658
000180 f9 3d 37 bd dd 77 a2 bd fe e3 c6 bd 08 d0 c2 bd
       -0.044736836 -0.07933018 -0.09711455 -0.09512335
000190 88 ea 7e be 26 17 0a bd 25 89 ba bc 68 48 44 be
       -0.24894154 -0.033713482 -0.022770474 -0.19168246
0001a0 14 e2 b8 be 51 4a a4 be 9f 14 8d be 4b 2b 22 be
       -0.36109984 -0.3208795 -0.27554795 -0.15836827
0001b0 b0 13 29 be 78 4e 0f 3e 2e 39 83 be 81 e7 92 3b
       -0.16511416 0.13994777 -0.25629562 0.004483164
0001c0 28 ea 76 be 6d 0f c6 bd e2 dc 31 be a5 c0 85 bd
       -0.24112761 -0.09670911 -0.17369416 -0.06530885
0001d0 66 df 91 be 19 19 0e be 82 76 59 be 71 96 0c be
       -0.28490752 -0.13876761 -0.21236613 -0.13729264
0001e0 4d ee a0 be fc a8 86 be 57 cd 27 be 45 9a 3f be
       -0.3143181 -0.263008 -0.16386925 -0.18711193
0001f0 97 11 cf bd ff fc df bd c8 1b 71 be bf 78 fe bd
       -0.10110777 -0.10936927 -0.23545754 -0.12425374
000200 bc 07 84 be 2b f0 b1 bd 34 a6 95 be 5f 66 8f be
       -0.2578715 -0.086883865 -0.29228365 -0.2800779
000210 1f 10 31 be e5 93 13 bd 9e 6b 40 be cb ef 0d bd
       -0.17291306 -0.036029715 -0.18791053 -0.034652513
000220 3c 18 86 be f3 a5 99 be 3e a7 36 3d 46 b9 bf bd
       -0.26190364 -0.30009422 0.04459309 -0.0936151
000230 e1 46 38 be 0c e0 98 be 50 d4 15 be 24 ce 7a be
       -0.17995788 -0.29858434 -0.14631772 -0.24492699
000240 b5 5d 1f bd 36 16 37 be b8 8b 8b be 3d c0 0e 3c
       -0.038907725 -0.17879567 -0.27255034 0.008712825
000250 a5 ca de bc 1b 23 3a be ad 15 84 be 33 28 6d bc
       -0.027196238 -0.18177454 -0.25797787 -0.014474916
000260 24 ed 27 be 00 b9 6f be 12 da 52 3d 49 ac 42 be
       -0.16399056 -0.23410416 0.0514775 -0.19011034
000270 7c 64 53 bd 93 44 79 3b c6 e4 84 be 2e f2 8f be
       -0.0516095 0.0038035258 -0.2595579 -0.28114456
000280 a1 8e 3e be f6 c1 ce bd 11 08 f3 bd ae 80 3a be
       -0.18609096 -0.10095589 -0.11866773 -0.1821315
000290 72 54 8f be 5a a7 02 be ea c0 44 be ca 65 9d be
       -0.27994114 -0.12759152 -0.19214216 -0.3074172
0002a0 72 37 44 be 83 a8 32 be 14 af e5 bd 86 f8 b4 be
       -0.19161776 -0.17447095 -0.11215034 -0.35345858
0002b0 49 f7 a3 3d 54 a7 19 3b 5e e9 85 be e4 c2 e2 bd
       0.0800615 0.0023445683 -0.26154608 -0.11072329
0002c0 f2 33 57 bd ad a4 4c be 69 b7 70 be 7a 69 49 be
       -0.052539773 -0.19984694 -0.23507465 -0.19669142
0002d0 02 52 9e bd 15 21 e6 bd 92 5a f3 bd d8 dd ea bc
       -0.077304855 -0.11236779 -0.11882509 -0.028670236
0002e0 84 34 21 be cc 97 1e be 8e bc 05 be d4 17 fa bd
       -0.1574269 -0.15487593 -0.13060209 -0.12211576
0002f0 36 1e 2f be ce 29 4d 3d 11 eb 1c 3e be e0 9c bd
       -0.17101368 0.050088696 0.15324046 -0.07660054
000300 de aa 2b be 69 4a a7 3d db aa 19 be 54 09 c5 be
       -0.167644 0.081684895 -0.15006582 -0.3848368
000310 ca a0 88 be 0c 33 4a be e7 be 43 be ee 2d 7d be
       -0.26685172 -0.19746035 -0.19115792 -0.24724552
000320 cb ba 99 3d 26 3f 1a be 6e 0f 0c bd c8 04 01 bd
       0.07506331 -0.15063152 -0.034194402 -0.0314987
000330 56 1e a1 3d 3c cd 16 3e 90 18 a2 bc 7f ce b0 3d
       0.07867114 0.14726728 -0.019787103 0.08633136
000340 a4 6f 8e 3c 4a 19 01 3e 16 40 7b bb 29 98 b3 3d
       0.017387219 0.12607303 -0.0038337759 0.087692566
000350 38 39 13 be a8 f4 3e 3d 40 2c 44 3d 86 7e b1 3d
       -0.14377296 0.04662004 0.047893763 0.086667106
000360 84 4a 1c 3e 07 7e 79 3d 20 3a ed bd 93 6f 44 3d
       0.152628 0.060911205 -0.11583352 0.047957968
000370 33 c8 a8 bc 0c 96 a3 3d fb bd d4 bd 88 fc 5f bc
       -0.020603275 0.079876035 -0.103877984 -0.013671048
000380 ee d5 20 3e 26 8d ff bd 14 19 e1 3d cb ff 62 bd
       0.15706608 -0.12478094 0.109911114 -0.055419724
000390 01 28 e8 3b 2c 76 b9 3d b9 1c a1 bd 4d 3f b9 3b
       0.007084847 0.090557426 -0.078668065 0.005653298
0003a0 7e 14 1c 3e 41 f7 de bd 46 77 9e 3d 89 8a 2f 3d
       0.15242192 -0.10887004 0.07737593 0.042856727
0003b0 a5 c8 f6 3d 64 d7 71 bc ae 2a a3 3c 5e b7 12 3e
       0.12049989 -0.014760826 0.019917812 0.14327762
0003c0 de 8f 2d be 04 72 f3 bc 90 81 ab 3d 6a b5 08 3e
       -0.16949412 -0.029717453 0.083743215 0.13350454
0003d0 af 5e 09 3d 18 28 ed bd 72 59 28 be 4d d6 ff 3b
       0.033537563 -0.11579913 -0.1644037 0.007807529
0003e0 da 3d 50 3e 7e 79 95 3d 04 ee 14 be ac bd e1 3d
       0.20336094 0.072985634 -0.14543921 0.11022505
0003f0 51 00 ef 3d 6a 4f ba bc f1 d5 21 be a7 a4 88 bd
       0.11669982 -0.022742946 -0.15804268 -0.0667203

weight_ih_l1 f4 [300, 100]
000000 e4 3b b2 3d 05 21 cd bd 9e fe 95 3c 9a da ae 3c
       0.087028295 -0.100160636 0.018309887 0.021344472
000010 3d f9 06 be f2 15 0d be ac 87 fd bd 96 c5 5f bd
       -0.13181014 -0.13777903 -0.12379393 -0.054631792
000020 33 a1 d3 3c 95 ab 0f 3e ce 59 31 bb 0c d9 44 bd
       0.025833702 0.14030297 -0.0027061584 -0.048058555
000030 ae dc f2 bc 6e f6 83 bc 0c 66 78 3c f5 6c 0e 3e
       -0.029646244 -0.016108718 0.015161049 0.13908751
000040 91 d7 ef 3d a3 06 bf 3d 01 16 27 be 86 16 0f 3c
       0.11711038 0.09327438 -0.16316988 0.008733397
000050 cf d1 c7 bd 27 5a b6 3b 36 58 ca bd 34 c3 ad 3c
       -0.09756815 0.005564946 -0.09880106 0.021211244
000060 d4 b8 03 3e f1 ff cd 3c dc 4d 0a bb d7 fb 25 bd
       0.12863475 0.025146456 -0.0021103537 -0.040523376
000070 d2 5d 2a 3d 2e 23 86 3d 9f 1c 1d bd 02 d8 0b 3e
       0.04159338 0.06549679 -0.038357373 0.13656619
000080 84 cb 0e bd 1b 7d c4 bd 61 80 9a 3d c8 aa 83 3c
       -0.034862056 -0.095941745 0.075440176 0.016072646
000090 4a 1b 0a 3e 04 1f d2 3d b4 b0 ee 3c 48 49 68 bc
       0.13486972 0.10259822 0.029136993 -0.014177628
0000a0 1c a8 26 bc 9e 8e 95 bd 24 c4 10 3d 4c 53 46 3d
       -0.010171916 -0.07302593 0.035343304 0.04841928
0000b0 f6 14 d2 bc c8 8b 78 bc 62 57 6f bd 23 ea 29 3d
       -0.02564476 -0.015170045 -0.058432944 0.041483056
0000c0 01 4b 2a 3d 67 1e bf 3d d1 5f c3 3b d2 8d 75 3d
       0.041575436 0.09331971 0.00596235 0.059949704
0000d0 98 aa d2 3d d8 ff f3 3d 76 49 c3 bb 68 6b ea bd
       0.102864444 0.11914033 -0.005959685 -0.11446267
0000e0 3b aa 0d 3d 5f 76 06 be bb d2 b5 3d da 4e 1d be
       0.034586173 -0.13131092 0.08878084 -0.1536211
0000f0 67 36 12 3d 35 a1 0a bd 1a be 05 3d c5 05 4a 3d
       0.035696413 -0.033845145 0.032651998 0.04932191
000100 2b 23 e5 bb 76 4f 97 3d eb 79 72 3d 29 60 68 3d
       -0.0069927177 0.07388203 0.0591983 0.05673233
000110 4f 91 f2 3d 88 bc 53 bd 2b 25 ec bd 8a 0e c0 bd
       0.11844122 -0.05169347 -0.11530527 -0.09377773
000120 ba 90 79 3d 14 9c 09 bc 63 c9 d3 bd 86 18 2b 3e
       0.060929038 -0.008399028 -0.10341146 0.16708574
000130 ad ab 33 3e 70 e3 bc bd 45 fe ea bc ca 64 a2 3c
       0.17545958 -0.09223068 -0.028685698 0.01982345
000140 3a 12 66 bd 3f 2c 1e 3e 0b 48 84 be 23 b9 d1 3c
       -0.056169726 0.15446566 -0.25836214 0.025600975
000150 1a eb 16 3e 0a c6 f4 3b ca 6a 35 3d 0a f0 df 3b
       0.14738122 0.007469897 0.044291295 0.006834035
000160 5d 8a c1 bc 4b c3 23 be 86 78 c6 bd 42 e2 a6 bb
       -0.023625547 -0.15992467 -0.09690957 -0.00509289
000170 52 60 a6 3c 8f 25 7d bd 02 e3 f4 bd 04 f8 21 be
       0.020309601 -0.061803397 -0.11957361 -0.15817267
000180 41 4d 92 3c 73 c7 b5 3c 8b 3a 22 bd 0a 1e 34 be
       0.017859103 0.022189831 -0.039606612 -0.17589584
000190 4f 92 37 be 97 80 04 3e 84 9a 81 3e 7e b4 f8 3c
       -0.17926906 0.12939678 0.253132 0.030359503
0001a0 58 50 12 3e 3f 8d 17 3e bf e7 f1 bc 64 72 82 3e
       0.14288461 0.14799975 -0.02952945 0.25477898
0001b0 f4 f7 cb 3d ab 83 ae 3d ad dc e3 3d 38 39 b6 bd
       0.09959403 0.085212074 0.11126075 -0.08897632
0001c0 2e 26 c2 3d e0 df 81 be f3 56 5f bc 40 7d 95 be
       0.094799384 -0.25366116 -0.01363157 -0.2919712
0001d0 b4 ca a4 bd 76 4e 84 3d 07 35 45 be 6d 28 1e bd
       -0.08046475 0.06460278 -0.1925851 -0.03861277
0001e0 86 39 72 be 83 8f 73 3d b3 a9 5f be 66 cf 40 be
       -0.23654756 0.059463035 -0.21842079 -0.18829116
0001f0 eb af e3 bd df 50 82 bd a1 60 00 3e 93 03 90 bc
       -0.11117538 -0.06363081 0.12536861 -0.01757983
000200 0c 26 43 be 83 86 0b 3e 48 15 9c 3e e9 4c 8e be
       -0.19057482 0.13625531 0.30484986 -0.27793053
000210 6e af 2c be b0 63 d0 3e 7f 55 67 be 69 19 33 be
       -0.16863796 0.40701056 -0.22591208 -0.17490162
000220 d4 b5 27 be 68 0c 98 3d 25 8e bc 3d 47 c0 67 bd
       -0.16377956 0.07424241 0.092067994 -0.056579854
000230 56 d9 1a 3e 97 60 a6 be 61 02 4b be 38 2d 81 3c
       0.1512197 -0.32495567 -0.19825126 0.015768632
000240 e1 0c f2 3c 46 ba a7 3d f1 74 21 bd 11 e3 c0 bd
       0.029547157 0.08189826 -0.039418165 -0.094183095
000250 f4 3e 8d bd bf e1 46 3d 18 4e 85 3e 61 ec 57 3e
       -0.06896773 0.048555132 0.26036143 0.21086265
000260 e5 47 d6 3d 43 29 38 bd 0b d3 b7 3d 9f 60 bd 3d
       0.104629315 -0.044961225 0.089758 0.09246945
000270 a6 54 14 be 7b b4 9e 3d a1 40 29 be 6d a7 3f ba
       -0.14485416 0.07749268 -0.1652856 -0.000731102
000280 3c a5 be bd c9 5b 36 3e 4c 71 76 be c4 e2 46 be
       -0.0930886 0.17808451 -0.24066657 -0.19422442
000290 07 4d 4a 3d a3 62 9a bd 12 9d b1 3e 09 06 f6 be
       0.049389865 -0.07538345 0.34690148 -0.4805148
0002a0 02 76 5c be 91 9c 1a be 29 5b 84 bd 04 45 6f 3c
       -0.21529391 -0.15098788 -0.064627 0.014603857
0002b0 1f 62 69 3d 7f 44 5e 3e ee c4 8e be c3 a2 f8 3c
       0.05697834 0.21705817 -0.2788462 0.030351048
0002c0 45 84 71 3e cf da 16 be 1f dc 7e 3e e2 73 37 3e
       0.23585613 -0.14731906 0.24888657 0.179153
0002d0 71 69 53 be 94 ba 2d 3d a5 91 b2 3e b2 2e a0 bb
       -0.20645691 0.042414263 0.34876743 -0.004888379
0002e0 0b 5b 00 3e ba d7 04 be 07 f1 a9 bd c6 1d 54 be
       0.1253473 -0.12972918 -0.082979254 -0.20714483
0002f0 60 46 ae 38 8b 1f dd bd ff 96 3f 3e e0 d1 18 bd
       8.310075e-05 -0.10797032 0.18709944 -0.037309527
000300 b9 9b 82 be c5 4c 96 3e cd 37 58 3e 97 44 63 3b
       -0.25509432 0.29355446 0.21115036 0.0034678334
000310 d2 8d 2f 3e 1c 7c e4 be 16 80 48 3d 37 58 5c 3e
       0.17143944 -0.44625938 0.048950277 0.21518026
000320 55 ed 3a 3a 5a 9f 39 3e f4 6c 62 be 1a bc 8e bd
       0.0007130702 0.18127194 -0.22111875 -0.06969471
000330 68 1f 74 be 0c 19 00 bb d1 3e 1b 3d f2 e6 91 bd
       -0.23840106 -0.001954618 0.037901703 -0.071241274
000340 fb 3c 03 be ec 17 b7 bc 6e 46 66 3d 16 e8 5f 3d
       -0.12816231 -0.022350274 0.05621951 0.054664694
000350 66 51 94 3d 4c 5c 79 bd 71 19 2e 3e 4e ec f7 3d
       0.07242088 -0.060879037 0.17001893 0.121056184
000360 5e 22 eb bd 7a 2a 48 be dd f9 19 3e b9 94 7c be
       -0.114811644 -0.19547454 0.15036722 -0.24666108
000370 97 d8 2b 3e ee 56 66 3d 39 fe 20 3e 74 0d 60 3e
       0.16781841 0.056235246 0.15721978 0.21880132
000380 ea 1d 18 bd f4 31 37 be 14 fd b8 be 85 6a 24 3e
       -0.037137903 -0.1789015 -0.36130583 0.16056259
000390 92 29 06 bb 2e 04 d5 3d f2 88 a8 3d 51 eb 2c bd
       -0.0020471555 0.10401188 0.08229245 -0.042216603
0003a0 a6 9d 19 3d 4b 77 8d be 0f f6 ba 3d 5d 91 b4 3d
       0.03750386 -0.27630076 0.09128963 0.08816788
0003b0 58 5c 6e 3d 53 a9 d0 bc f0 30 2b be 53 f1 be 3c
       0.058193535 -0.025471365 -0.16717887 0.023308432
0003c0 ad 0d 81 bd 46 82 4d 3e de c1 d1 3d 4d 12 99 be
       -0.063014366 0.20069227 0.10242055 -0.29896775
0003d0 5f 2c 80 3d 52 3b 27 3d 22 3c ae bc f2 d9 c3 bd
       0.06258463 0.040828057 -0.021268908 -0.09563054
0003e0 89 b7 c9 3c 5f 88 65 be bd 95 57 3e a8 e9 28 be
       0.02462365 -0.22415303 0.21053214 -0.16495383
0003f0 7c e8 a5 bd 47 69 14 be 21 de 1d 3c 92 b2 74 bd
       -0.081009835 -0.14493285 0.009635479 -0.05974061

weight_hh_l1 f4 [300, 100]
000000 2b 6f 1c be f0 48 3d bc c5 85 c8 3d ec e2 4b 3e
       -0.15276782 -0.011553034 0.097911395 0.19910783
000010 16 de ce 3d 79 bf a8 3d eb ca a4 bd 8a a9 20 bd
       0.10100953 0.082396455 -0.08046516 -0.039224185
000020 70 db 61 3e 20 9d 03 3d 3f cb c1 3d be 7c 49 bd
       0.22056365 0.032132268 0.09462594 -0.04919123
000030 55 95 9d 3d db ff bc 3c ea d5 59 3e 60 61 24 3c
       0.076944984 0.02307122 0.21273008 0.010032982
000040 53 2f 20 bd f0 57 47 3e 86 6d 5f 3d e1 71 be bd
       -0.039107632 0.19467139 0.05454781 -0.092990644
000050 ff f9 14 be 0a c3 3d be 78 7f b1 bd 64 39 a6 bd
       -0.14548491 -0.18531433 -0.08666891 -0.08116415
000060 d4 05 9d 3d 5d be 3b 3c 94 83 4f be 5b d0 8b bc
       0.07667127 0.01145896 -0.20265037 -0.017067125
000070 1e 5d b8 bd fa 86 3f 3e 32 03 51 be a8 45 f0 bd
       -0.09002136 0.18703833 -0.20411375 -0.11732036
000080 49 75 26 3e 46 29 18 3e 27 83 15 3e e0 9b 46 3e
       0.16255678 0.14859495 0.14600812 0.19395399
000090 11 50 b4 bc e4 ce 1d 3e 4e e9 fe bd 58 03 4a 3d
       -0.022010835 0.15410954 -0.12446843 0.049319595
0000a0 3b f1 da bd 77 e3 d0 bd 61 5d 1e be 65 47 6e 3d
       -0.10690542 -0.101996355 -0.15465309 0.058173556
0000b0 2a 9a 3c be bd 69 03 be 50 b7 46 be 88 4c 1b be
       -0.18418184 -0.12833305 -0.19405866 -0.15165913
0000c0 d9 5b bc 3d 04 68 0b 3e 92 6e 23 3c 01 35 e3 3d
       0.09197206 0.13613898 0.0099750925 0.11094094
0000d0 40 4a 87 bd b2 96 f2 3d b0 18 db 3d c3 17 bd bd
       -0.06605959 0.11845149 0.10698068 -0.09233048
0000e0 ef d5 27 3e 5f 3f 38 be 85 4d 8e 3c 73 c5 1d 3d
       0.16390203 -0.17992924 0.017370949 0.03851838
0000f0 85 5c 98 bd 88 7a 85 3d d3 5e 4e 3e ca b7 54 bd
       -0.07439522 0.065175116 0.2015336 -0.051933087
000100 d5 4a b4 bc 82 b1 a8 3d a0 2f f8 3d 28 6f b5 3d
       -0.022008339 0.08236982 0.12118459 0.08859092
000110 0f db 54 3e 9e 86 5c 3e 9a 7b 78 3d df 99 80 3b
       0.20786689 0.21535727 0.06066475 0.003924593
000120 ee 60 1d 3e d8 16 30 be bc 55 2f be bf a9 31 bc
       0.15369007 -0.17196214 -0.17122549 -0.010843693
000130 15 32 ee 3d ef 3f ca bd cc 51 c5 3d be 4e 9a bd
       0.11630646 -0.098754756 0.09634742 -0.0753455
000140 7f 28 ac 3d c4 c4 16 be 94 4d c8 3d 1f 4a cd 3d
       0.084061615 -0.14723498 0.09780422 0.10023903
000150 e1 24 cc 3c 5f fd 0d bd 61 fb 55 3e 4f fe 19 be
       0.024919929 -0.03466546 0.20896675 -0.15038417
000160 61 a1 3a bd f0 7a 5f be 78 f7 23 bc 3a c2 1e 3e
       -0.04556406 -0.2182424 -0.010007732 0.15503779
000170 3b 2a 58 3c 3d 3c 85 3d 8a e9 06 bd 95 b0 cd 3d
       0.013193662 0.0650563 -0.032937564 0.10043446
000180 bf 2c 46 be 92 ea 96 bd ab da 0a be 61 60 0b 3e
       -0.19353007 -0.073689595 -0.13559978 0.13610984
000190 4c 72 fe 3d 02 c2 42 3e c2 d8 05 be 68 9d 8c 3d
       0.12424144 0.1901932 -0.13070968 0.0686596
0001a0 61 56 9f 3e ce f2 d7 be 4a 6a 31 3e 8e 60 e9 3d
       0.3112059 -0.42177433 0.17325702 0.113953695
0001b0 b2 22 7b 3c 43 8f 03 be d1 1f 6d bc 47 fd 66 be
       0.015328096 -0.12847619 -0.014472918 -0.22557555
0001c0 aa f9 41 be 6c 67 44 3e 81 f4 e6 bd 8a b8 0e be
       -0.18942896 0.19180077 -0.11277104 -0.13937584
0001d0 9d a6 20 be c9 92 37 be cc 18 2a bd 4b ca 44 be
       -0.15688558 -0.17927088 -0.041527554 -0.19217794
0001e0 73 14 da 3d 92 c0 cf 3c fa 47 2f 3d 7d 6b 48 3e
       0.10648432 0.02536038 0.04279325 0.19572254
0001f0 81 99 43 3e 2d 4e 7f be 66 75 ab 3d e6 c4 43 be
       0.19101526 -0.24932165 0.08372001 -0.1911808
000200 38 b7 b5 be 92 ec 8f 3d a2 86 93 3d 69 c8 6e bd
       -0.35491347 0.07027544 0.072034135 -0.058296595
000210 11 df 1b bf 6b 3b 65 be 88 29 94 bd 27 13 78 3c
       -0.6088725 -0.22385947 -0.07234484 0.015141285
000220 46 c6 4e 3d 11 0a 45 bd 05 71 1c 3e 69 86 9a bc
       0.050482057 -0.048105303 0.15277489 -0.01886292
000230 df 38 a8 3c c3 45 d3 be fd 20 11 3d 8d c6 4e 3e
       0.02053493 -0.4126416 0.03543185 0.20192929
000240 ce 7a 72 3e fd 4c 95 bd 18 43 20 3d 33 0e c0 3d
       0.23679659 -0.07290075 0.039126486 0.09377708
000250 51 4a d6 bd 56 c1 54 3d 7a 73 51 be f5 11 d9 bd
       -0.104633935 0.051942192 -0.20454207 -0.10599128
000260 75 9a 74 be 18 53 ef bd 01 fd 49 be 67 8e 5d 3e
       -0.23887046 -0.11685771 -0.1972542 0.21636353
000270 c2 fd b6 3d 5f 3e e8 bd 7b df a9 bd b9 d5 a6 3c
       0.08935119 -0.11340021 -0.08294579 0.020365583
000280 ee 90 e4 bb db e8 af bc dc 99 fa bd 0d 6f 87 3e
       -0.006975285 -0.021473339 -0.122363776 0.26451913
000290 38 0f a5 3e ad 46 e1 3d 38 a0 87 bd e0 fb 04 3d
       0.32238173 0.109998085 -0.06622356 0.03246677
0002a0 dd 86 9e bd cc 63 5e bd ee bb be bd 61 2f 07 3e
       -0.07740567 -0.054294392 -0.093131885 0.13201667
0002b0 c5 c5 7b bd 9e ef 34 be 44 80 7e 3d 58 4a cd be
       -0.061467905 -0.17669532 0.062134042 -0.40095782
0002c0 bd d4 bc 3e 17 aa 4d 3d 4d 78 9a bd 16 2a 18 3e
       0.36881056 0.05021104 -0.07542477 0.14859805
0002d0 d7 46 0c bd e5 c5 21 be 84 01 77 be 52 5e 13 be
       -0.034247246 -0.15798147 -0.24121672 -0.14391449
0002e0 02 99 61 3d 71 3f 42 bb 5c a6 b4 bd 25 c0 e7 3d
       0.05507756 -0.0029639865 -0.08820793 0.113159455
0002f0 8f 6f 43 3e bc a5 40 3e 14 60 33 3e f5 f9 a6 bc
       0.19085525 0.18813223 0.1751712 -0.02038286
000300 51 d7 87 bd ca 33 3c ba 06 ac 12 3e 3c 67 c4 bd
       -0.06632865 -0.0007179348 0.14323434 -0.09590003
000310 65 df bd 3b 90 78 c6 3e e5 e3 77 3d ba 28 20 3c
       0.005794453 0.38763857 0.06052007 0.009775335
000320 23 7b 3b 3d fc 82 23 be 59 8e 3d bc 32 a2 cf bc
       0.04577173 -0.15967935 -0.011569583 -0.025345895
000330 5a 6b 8e 3d c9 a0 93 bc ff eb 24 be 32 06 90 bb
       0.069540694 -0.018021004 -0.1610565 -0.00439527
000340 da db 27 bd 45 ac 82 bd 8d 1f 16 be 5f ae 12 bd
       -0.04098115 -0.06380514 -0.14660473 -0.035810824
000350 96 24 1e 3d d5 88 cb 3c 4a ec 83 bd 76 b4 c8 bc
       0.03860911 0.02484552 -0.06441553 -0.024500113
000360 ed 9b db 3d 9b 1d 13 3e b1 b5 c9 3a b8 c1 8e 3d
       0.107231 0.14366762 0.0015389231 0.06970543
000370 b6 57 f1 3c b1 a5 a3 3d 7c 3b 83 3d 8c 53 50 ba
       0.02946077 0.079905875 0.0640783 -0.000794702
000380 07 cc e7 3d ae ea c4 3d 89 97 67 3c 66 92 8a 3c
       0.11318212 0.09615074 0.01413525 0.016915511
000390 1d ae 11 3e a0 58 2a bd 80 41 bf bd 75 b8 81 3b
       0.14226575 -0.041588426 -0.09338665 0.0039587566
0003a0 22 4f d0 3d bc ff e3 3a 6f ad 5b 3d 93 df 18 be
       0.101713434 0.001739494 0.053632196 -0.14929037
0003b0 3f 25 ac 3c 8c 56 e5 3d 4c a8 b2 bd 9c f0 a6 3d
       0.021013854 0.11198148 -0.08723506 0.08151361
0003c0 00 35 8e 3d bf 0c be 3c 6e cc 2b bc cb 9f 5e be
       0.06943703 0.023199437 -0.010485752 -0.21740644
0003d0 2b db 98 bd a9 93 3b 3d c3 13 fd 3c ad 8f b9 3d
       -0.07463678 0.045795117 0.030893212 0.09060607
0003e0 52 90 cb 3d 63 60 af be 57 e9 1e 3e a5 c4 27 3d
       0.09939636 -0.34253225 0.155187 0.04095902
0003f0 41 ab 51 bd f2 2f e5 3d 9b ae dd bd 8c d0 f4 3c
       -0.05118871 0.111907855 -0.10824319 0.0298846
